mnist_cnn.pth (torch, 231717 bytes, 10 tensors)

conv1.weight f4 [6, 1, 3, 3]
000000 c1 76 61 3e 48 34 ab bd 5f 7d 3c bf e2 61 88 3e
       0.22017957 -0.08359581 -0.736288 0.2663718
000010 38 00 c5 bd 38 ec 3d be 97 3c 7d 3e 78 41 c3 3e
       -0.09619182 -0.18547142 0.24730144 0.38135886
000020 2a fe b4 3e a5 a0 d4 3c 6a 92 ed 3d f3 ca f8 3e
       0.35350162 0.025955508 0.11600192 0.48592338
000030 27 c5 fe 3e cd b4 99 3e c0 58 94 be 89 98 a1 3e
       0.4975979 0.30020753 -0.2897396 0.31561688
000040 18 47 81 be c1 64 4b bf 24 72 02 bf 83 db af 3c
       -0.25249553 -0.79450613 -0.50955415 0.021466976
000050 b3 fa a0 3e 34 51 14 bf 18 d0 75 be 59 e8 38 3e
       0.31441268 -0.57936406 -0.24005163 0.18057384
000060 fa 0b 8b bd fa 47 00 be 47 08 21 3f c9 41 4a 3e
       -0.06789394 -0.12527457 0.62903255 0.19751658
000070 a8 6f 91 3e 98 25 23 3f a1 d6 9d be 66 44 7a bd
       0.284055 0.6372924 -0.3082781 -0.061100386
000080 ab ea 99 3e da 07 c9 be 0d 10 3a bf 7d ed 12 bf
       0.3006185 -0.39263803 -0.7268074 -0.5739363
000090 db 86 94 3e 1d 9e 47 3d 2e f0 1b bf e1 59 0f be
       0.29009137 0.048734773 -0.6091336 -0.1399913
0000a0 75 af 5b bf 34 ac 39 bc 8c 54 ee be b7 80 95 3d
       -0.858146 -0.01133256 -0.4654888 0.07299941
0000b0 9e e0 fc 3d 5e 05 c5 be 2c c3 54 be ba ec cf 3e
       0.1234753 -0.38480657 -0.20777577 0.40610296
0000c0 3f 98 9f 3e bc aa a1 3e 47 80 83 3e 6a 6a c1 3d
       0.31170842 0.31575572 0.25683805 0.09444125
0000d0 8c 24 1e 3d 64 f7 5f be
       0.038609073 -0.21871716

conv1.bias f4 [6]
000000 00 77 19 be 37 e1 27 be 97 15 0d 3d 4b 10 44 3d
       -0.14986801 -0.16394506 0.034444418 0.0478671
000010 5d 92 7a 3e fe 7a 66 be
       0.24469896 -0.22507855

conv2.weight f4 [16, 6, 3, 3]
000000 aa 70 2e 3d aa c0 b5 3d 01 1d 09 3e fa 91 84 be
       0.042587914 0.088746384 0.1338997 -0.2589262
000010 db c0 8e 3d 4e 97 64 3e 71 36 c8 be de eb 1c be
       0.06970378 0.22323343 -0.39104035 -0.15324351
000020 98 6a aa be 90 b0 11 3d 29 ac 89 3c 61 09 43 be
       -0.3328445 0.035568774 0.016805725 -0.19046547
000030 45 bf f5 bd da a0 c2 3d ca f3 ae bd 0f 74 a7 bd
       -0.119993724 0.09503336 -0.08542593 -0.08176433
000040 b6 03 3a 3b b9 0a db 3d a1 83 f5 bc 67 12 3f be
       0.002838356 0.106954046 -0.029969992 -0.18659364
000050 7a 5e 48 be ba 95 e8 bd 84 6d 7e 3d 72 9e 83 be
       -0.1956729 -0.11356683 0.06211616 -0.25706822
000060 38 98 07 3d ae cb 0e be 75 6d 8c 3d f2 15 6c be
       0.03310415 -0.13944885 0.06856815 -0.23055246
000070 ee 25 84 be eb 15 23 bf 31 53 95 3d 7a 4a f5 3d
       -0.25810188 -0.6370532 0.07291258 0.11977096
000080 38 71 ef 3d 2b df dc 3d 09 8a e9 3e 41 8f 1e 3f
       0.11691517 0.107847534 0.45613125 0.6193734
000090 ee 5d 0f bd be 9c e7 3c 4e df 62 3e bd 44 83 bd
       -0.035001688 0.028272983 0.22155496 -0.06409595
0000a0 21 b0 56 be 81 a8 8c be ae cf 07 3e 61 2c d6 bc
       -0.20965625 -0.27472308 0.13262817 -0.026144208
0000b0 56 f5 0d bd 26 a5 8c 3d 66 30 d3 bc 13 4e 12 be
       -0.0346578 0.06867437 -0.025779914 -0.14287595
0000c0 05 ad 32 be 2f e6 b6 3c 35 d1 34 3e aa 33 f7 bd
       -0.17448814 0.022326557 0.17657931 -0.12070401
0000d0 e1 75 91 be 72 1b d6 bd ff 22 2f be a8 c7 1a be
       -0.28410247 -0.104544535 -0.17103194 -0.15115225
0000e0 32 69 e6 bd 8b a8 6b be 96 6c 06 3e d5 24 18 bd
       -0.11250533 -0.23013513 0.1312736 -0.0371445
0000f0 e4 c9 d3 3d 51 85 cc 3e c3 55 03 3e 25 18 54 3e
       0.10341242 0.39945462 0.12825684 0.20712335
000100 d9 ed eb 3e 53 ac bf 3e 7c 12 85 3d 67 2c 15 3e
       0.460799 0.3743616 0.06497666 0.1456772
000110 59 53 db bd 06 3b 49 be e6 1b 93 bd 7f 7c 8c 3d
       -0.10709257 -0.19651422 -0.071830556 0.06859683
000120 e9 c3 7c 3e 9d 2b 46 3e 87 1f b3 bd 56 c5 d5 bc
       0.24684109 0.19352575 -0.08746248 -0.026095074
000130 aa eb 1b bd a2 1c 46 3e 02 f2 a8 3d 79 e5 8a 3d
       -0.038066544 0.1934686 0.08249284 0.0678205
000140 23 c8 03 be d1 14 10 bf 10 2b f7 be 8b 1a 9c 3e
       -0.12869315 -0.56281763 -0.48275042 0.30489
000150 00 d3 d9 be 24 e7 a9 be f3 02 d0 bd 5c 30 3c bd
       -0.42543793 -0.3318416 -0.101568125 -0.045944557
000160 14 74 95 3e f6 02 9c 3e b6 ce f3 bd 92 91 15 3e
       0.29190123 0.3047101 -0.11904661 0.14606312
000170 d0 87 b3 bd c6 b4 6d be de 85 0a bf 10 60 9a be
       -0.087661386 -0.23213491 -0.54110515 -0.30151415
000180 d6 c7 e4 be 97 ad 2f bf 7c d7 c1 be 36 24 59 3e
       -0.44683713 -0.6862425 -0.37859714 0.2120522
000190 a6 e0 c8 3e 9a bb 77 3e df 30 80 3e 8a 08 39 be
       0.39233893 0.24192658 0.25037286 -0.18069664
0001a0 c7 d5 8d bd 52 71 1e be e0 4a 86 be a3 4b ea 3d
       -0.069255404 -0.15472916 -0.26229 0.11440208
0001b0 94 c2 82 be 17 30 fa 3c f8 be 1f 3e 4e f5 94 bb
       -0.25539076 0.03054051 0.15600193 -0.004545844
0001c0 9b 63 78 3d 2e 7b df bc 9c 07 18 3e c9 40 86 be
       0.060641866 -0.027280416 0.14846653 -0.26221302
0001d0 30 39 30 be b7 62 36 be b6 f1 3f be a2 dc dc be
       -0.17209315 -0.17811094 -0.18744549 -0.4313708
0001e0 aa 0a 0b bf 57 b5 8c bd b5 be 30 3e 27 b1 10 3d
       -0.5431315 -0.06870525 0.17260249 0.035325196
0001f0 fa ab d4 3e cf 4a 8c 3e 05 57 85 be d4 34 1b bd
       0.41537458 0.27400824 -0.26042953 -0.037892178
000200 e2 b9 15 3e c2 b8 20 be ff 4e f9 3d 7d fc 93 bc
       0.1462169 -0.1569548 0.121732704 -0.018064732
000210 bb fb 21 3e 1a 80 7f be 00 8f cf be e6 5c 28 3e
       0.15818684 -0.2495121 -0.40538788 0.16441688
000220 87 cf b7 3e 9d d4 a6 be f1 43 9f bd 9c ab 4a be
       0.35900518 -0.32584086 -0.07776631 -0.19792026
000230 db 59 e0 3d 52 31 ec be 78 6b 2c be 0a 17 42 3e
       0.109546386 -0.46131378 -0.16837871 0.18954101
000240 71 12 66 ba 4b fe d3 bd eb f5 84 3c dc 49 1c be
       -0.00087765517 -0.10351237 0.016230544 -0.1526255
000250 8d 33 8a 3d 35 45 9e bd 6c 9e 8c bd cd ec 89 bd
       0.06748114 -0.07728044 -0.06866154 -0.06734619
000260 4a dd 1d be 0d 15 9c be f2 c5 91 be 41 11 c6 be
       -0.15416446 -0.3048481 -0.28471333 -0.3868504
000270 58 2f 9b be b4 72 d5 3b 39 b8 b6 3e 96 a9 a9 3e
       -0.30309558 0.006513918 0.35687426 0.33137196
000280 66 d5 b5 3e 59 f5 c6 bc 8e 4f 3c 3e 96 16 9a 3d
       0.35514373 -0.024286913 0.18389723 0.07523839
000290 68 3f 14 be c3 47 36 be ef d4 94 be 70 e3 9a bd
       -0.14477313 -0.17800812 -0.29068705 -0.075629115
0002a0 50 1e 5b be db b8 6c bd 02 29 93 be eb 6d 01 3e
       -0.21398282 -0.05779348 -0.28742224 0.12639587
0002b0 40 54 bf bc 2d 34 b3 be 13 eb 4c 3e 41 25 aa be
       -0.023355603 -0.35000744 0.20011549 -0.33231547
0002c0 64 20 a9 bd e4 c8 07 3d cb ba 79 bd d8 5d 10 bc
       -0.08258131 0.03315057 -0.060969155 -0.008811437
0002d0 ff df ee be df a3 d0 bb 0b c8 de 3e 04 0b 65 be
       -0.4665527 -0.006367191 0.43511996 -0.22367483
0002e0 2d f0 84 3d 49 19 ef 3e e1 9f a3 3d bd 1a a0 3e
       0.064911224 0.4669898 0.07989479 0.312704
0002f0 6d 57 57 3e d8 9f 50 bd 13 82 bf be ce 44 cf be
       0.21029444 -0.05093369 -0.37403926 -0.4048218
000300 f1 6e ec bd 72 e0 06 bf 9e 3f 20 bf f1 4e c4 be
       -0.11544598 -0.52686226 -0.6259707 -0.38341478
000310 b4 83 36 bf 52 c6 25 bf ca a8 24 be 5d 72 45 3e
       -0.71294713 -0.6475574 -0.16080013 0.19281907
000320 1b 9f 0a 3e e2 40 26 3e 05 41 a8 3d 74 36 45 be
       0.13537256 0.16235688 0.082155265 -0.19259053
000330 64 f0 1f bb 34 36 f5 bd cd 80 94 bd 12 66 f1 3d
       -0.0024404759 -0.11973229 -0.07251129 0.117870465
000340 49 ef 24 bf ba 73 86 3e c4 55 8d be 38 4a 36 bd
       -0.6442762 0.26260167 -0.27604496 -0.044504374
000350 73 22 9a 3e 06 2a a5 be 74 d1 6e bc d9 3d 99 3e
       0.30104408 -0.32258624 -0.014576305 0.2993
000360 42 d1 a1 3e 5a 4d 08 3e ce 14 8e 3c 98 a8 e2 3c
       0.31604964 0.13310757 0.017343905 0.027668282
000370 68 12 8c 3e c8 97 93 3e 97 ea 07 be 1c 87 3b be
       0.27357793 0.28826737 -0.13273083 -0.18313259
000380 53 4f 2d be 25 80 27 3e 09 58 0e 3e 74 fa 09 be
       -0.16924791 0.16357477 0.1390077 -0.13474447
000390 fd 1f 2c 3d 16 db de bd 83 cf 96 bb 1b a4 2f be
       0.042022694 -0.10881631 -0.004602374 -0.17152445
0003a0 4c 0a 75 be 3a 68 b9 bb fb cd 73 bd f8 9d 26 be
       -0.23929709 -0.0056581767 -0.05952261 -0.16271198
0003b0 0e e3 77 3e c9 94 27 be 36 9a 2b bf a9 a9 f2 bd
       0.24207708 -0.16365351 -0.6703218 -0.11848766
0003c0 db e0 bd bd 36 a6 6a 3d b1 67 92 be 62 dd ab be
       -0.092714034 0.057287417 -0.28594735 -0.3356734
0003d0 91 d7 70 bd 80 09 80 3e fb 2c 1d 3e b4 b3 28 3c
       -0.05879933 0.25007248 0.1534919 0.010296751
0003e0 6d f6 1d bd 15 9e d5 3d c4 60 88 3e 1e b3 4e 3e
       -0.038565088 0.104305424 0.26636326 0.20185515
0003f0 46 99 1b be a2 1d cb bd 77 29 78 bd ce 9e 10 bf
       -0.15195188 -0.099177614 -0.06058642 -0.56492317

conv2.bias f4 [16]
000000 6b 30 81 bc 6a 26 3d be 57 10 42 bd ef 3e 85 3c
       -0.015770158 -0.18471685 -0.047378864 0.01626536
000010 3c bc 44 bd 97 9c 92 3d a4 ee 87 bc 55 8e 3b bd
       -0.048031077 0.071587734 -0.016593285 -0.045790035
000020 ab a0 85 be c4 e5 97 bc 71 a9 ca 3c 65 1b b3 bc
       -0.26099142 -0.018542178 0.024739 -0.021863649
000030 99 ce 11 be 38 e2 06 be 7f b3 88 3d 3b aa ca 3c
       -0.14238967 -0.13172233 0.06674861 0.024739375

fc1.weight f4 [120, 400]
000000 73 37 9b 3c e0 d0 77 bd 5c b9 1d bc c6 8d ba bc
       0.018947339 -0.060501933 -0.009626713 -0.022772681
000010 6c 13 05 3d 3e 32 c2 bc a0 47 4e bd 2c 3b b3 3c
       0.032489225 -0.023705598 -0.050361276 0.021878801
000020 a1 7e 97 bd c9 3a 29 bd 50 9b c7 bc a4 46 24 bd
       -0.073971994 -0.041315828 -0.024366051 -0.04010643
000030 c7 c4 61 bd 2f 98 47 bd 0b 05 81 bc 24 d7 8a 3c
       -0.055119302 -0.048729118 -0.015749475 0.01694829
000040 ac a4 91 bd dc 24 bc 3b 2f a8 8e ba d1 9c fb bb
       -0.07111487 0.0057416987 -0.0010883863 -0.007678606
000050 82 3e 69 bc c0 16 81 bd 18 26 5f bd 5d 37 48 bc
       -0.014236094 -0.06303167 -0.05447969 -0.012220231
000060 9a 80 5b bd 43 10 bf 3c 85 5c bc 3c 8a 60 86 3c
       -0.05358944 0.023323184 0.022993336 0.016403455
000070 b6 a4 2e bd 68 48 17 3d 93 9e b6 ba 34 1a 19 bd
       -0.04263755 0.036934286 -0.0013932757 -0.037378505
000080 10 9d 8e 3c 39 1d 71 3c 2c 3c 97 bd f8 a5 13 3d
       0.017408878 0.01471644 -0.07384524 0.036046952
000090 c4 99 cd bc 71 f8 d9 3c 31 c2 ef 3a 90 7b 37 bc
       -0.025097735 0.026607724 0.0018292126 -0.011198893
0000a0 d3 65 f2 bb d6 33 79 bc 11 e6 10 bd 92 a6 c8 bc
       -0.0073973923 -0.015210113 -0.03537566 -0.02449349
0000b0 71 18 14 bd 1d 7e 1e bd ba 51 5d 3c 18 0a 4c bc
       -0.03615612 -0.03869449 0.013508255 -0.012453578
0000c0 ee b6 d3 3c 17 06 3b bd 52 1e 1e bd ad 76 7a bc
       0.025844064 -0.045660105 -0.038603134 -0.015287084
0000d0 2a 7d 94 bd 3e 46 08 3c f2 27 92 bd 75 bc f5 ba
       -0.07250436 0.008317528 -0.07136525 -0.0018748181
0000e0 db 38 76 bd bb 51 e5 bc bf 3d 82 3c e7 32 3f 3c
       -0.060112815 -0.027993074 0.015898583 0.011669851
0000f0 b1 54 3f bc d7 81 87 bc 35 17 c8 3b 02 3b b3 bc
       -0.011677907 -0.016541405 0.006106282 -0.021878723
000100 ca 6f 2f bc e6 37 3c bc fe 26 63 3c eb ba 54 b9
       -0.010707805 -0.011487937 0.013864277 -0.00020287528
000110 54 00 ec 3b 7d 91 2f bd b0 cb 59 3c b1 00 07 bd
       0.0072021876 -0.042863358 0.013293192 -0.032959644
000120 48 00 c3 bc 9b be a2 bd 13 e6 36 bd 1b 83 e6 bc
       -0.023803845 -0.07946511 -0.04465301 -0.028138688
000130 a6 6c c5 bc 86 f7 d0 3c 49 f8 b2 bc e6 d8 85 bc
       -0.02409966 0.025508653 -0.021846907 -0.016338777
000140 7b 16 9c bd 4b 26 95 bb d0 7e e8 3a f5 49 55 bd
       -0.07621475 -0.004551684 0.0017737988 -0.052072484
000150 98 12 2f bd e9 2a 1f 3c 9c 1d ae bd 91 65 78 bd
       -0.04274234 0.00971482 -0.08501741 -0.060643736
000160 4c 06 07 bd 2f 23 49 ba 49 9f 41 bd ed b5 41 3c
       -0.03296499 -0.0007672784 -0.047271047 0.01182316
000170 b7 33 10 bd b1 65 54 3c 31 12 23 bd b8 3e 0e bd
       -0.03520557 0.012963698 -0.03981227 -0.034727782
000180 29 50 50 bd b4 d8 f9 bc e2 13 b2 bd 98 e3 60 bc
       -0.050857697 -0.03049884 -0.086951986 -0.013726138
000190 94 25 54 bd 5e b8 b6 bc 17 a6 7c bd 94 2b dd bc
       -0.05179365 -0.02230471 -0.061681833 -0.026998319
0001a0 50 ce 98 3c 43 7d 4f bd 01 dd 14 bd 93 42 1d 3c
       0.018653065 -0.05065657 -0.03634358 0.009598392
0001b0 d9 54 29 bd bc d5 9b 3c 09 bf d6 bc a8 83 2f bd
       -0.041340683 0.019022815 -0.02621414 -0.042850167
0001c0 8b 05 97 bd 78 42 c2 bc 50 c9 65 3c 19 2c 3e bd
       -0.07374104 -0.023713335 0.014025047 -0.046428774
0001d0 19 a4 bb bc 67 7c 84 3b 15 49 1d bd ba 5c 05 bc
       -0.022905396 0.00404315 -0.038399775 -0.0081397835
0001e0 45 c0 68 bd f6 e8 25 bd 50 9e ce bc 9e 63 61 bd
       -0.056823988 -0.040505372 -0.025221974 -0.055026643
0001f0 35 2c af bc d7 2f 17 bc 9f ef 5c bd 34 47 62 3c
       -0.021383384 -0.0092277145 -0.053939458 0.013810921
000200 3e 2c f6 bc f5 16 c0 bc 61 99 f3 bc 2f cd 22 3d
       -0.030050393 -0.023448447 -0.029736223 0.03974646
000210 61 81 62 bd d1 3b 11 3c 1a 5a 4e bd 67 40 33 bb
       -0.055299167 0.008864359 -0.050378896 -0.002735162
000220 01 c1 61 bd 46 9a ba bc 7d d9 0d bd fe 7c 5a 3c
       -0.055115703 -0.022778641 -0.03463124 0.0133354645
000230 91 d2 c3 3a 78 0d fe 3c cf 44 57 bd 18 d2 2b bc
       0.0014940073 0.031012282 -0.052555855 -0.010487102
000240 bb e9 57 3b 0d 25 fc 3c da 92 53 bc 87 e8 f2 3c
       0.003294571 0.030779386 -0.01291343 0.029651893
000250 05 2a 04 bd b3 7e cd 3c 47 c9 87 bc 14 19 4c bd
       -0.032266635 0.025084829 -0.016575469 -0.049828604
000260 3a 6e e6 3c 15 b0 74 3b f5 18 c2 39 c1 f2 d1 bc
       0.028128732 0.0037336398 0.00037021158 -0.02562845
000270 ac 2d ff bb 7f 16 3c 3b d1 c1 8b bc 9f 3a c4 3c
       -0.007787427 0.0028699932 -0.017060192 0.023953734
000280 9e e5 78 ba 9a 1d 91 bc 1c d8 0d bd 24 90 2e 3d
       -0.0009494665 -0.01771431 -0.034629926 0.042617932
000290 0f f8 68 bd 7b 83 12 bc 77 b1 24 bd 2f 25 e5 bc
       -0.056877192 -0.00894248 -0.040208306 -0.027971832
0002a0 ae d8 3a bd 15 67 53 bd 2c 4e fb 3c aa 85 46 3c
       -0.045616798 -0.05161198 0.030676924 0.012116829
0002b0 ab 33 29 3d d9 14 8b bd bd c7 62 bd 58 01 67 bc
       0.04130904 -0.06791086 -0.055366267 -0.0140994415
0002c0 a4 df 3b bd 1c 04 14 bd c3 92 2d bd 5a 3b 54 bd
       -0.045867577 -0.03613673 -0.04237629 -0.051814415
0002d0 eb 0c 17 bd 47 2c 69 bd cd 51 37 bd 5f 29 15 bc
       -0.036877554 -0.05692699 -0.044755746 -0.009104102
0002e0 b8 18 73 bd f5 ae 12 3d ac 6e d2 3c 7b 1d 93 3b
       -0.059349746 0.035811383 0.025687538 0.0044895983
0002f0 08 dd 29 bd fa 84 d8 3c cf 79 64 bd 6c eb 67 bd
       -0.041470557 0.026430596 -0.05578023 -0.056621
000300 f8 fd ae bc 39 7a 44 3c f7 4c 69 bd cf 11 fd ba
       -0.021361336 0.011992031 -0.056958165 -0.0019307676
000310 56 ce 49 bd 87 c0 4f 3c 84 a4 58 bd 2a 53 78 bc
       -0.049269043 0.012680179 -0.05289127 -0.015156547
000320 fa 34 29 bc c9 45 0c 3d b4 e2 65 bd f8 a5 e8 3b
       -0.010327572 0.03424624 -0.056124404 0.007099863
000330 09 61 8a 3c 7c ee 7f bb 18 e0 33 3c 28 33 8c bd
       0.016891973 -0.003905206 0.010978721 -0.06845695
000340 e5 a5 82 bd 0b 44 67 bd a0 ff d2 bb 10 5d 2d 3d
       -0.06379298 -0.056461375 -0.0064391643 0.04232508
000350 f6 56 26 3c f0 7b ff bc cb 9a 68 bd cc 47 b4 3b
       0.010152569 -0.031187028 -0.056788247 0.005501723
000360 64 51 e1 bb 46 4f 25 bd a0 83 30 bd e0 74 c3 bc
       -0.0068761576 -0.040358804 -0.043094277 -0.023859441
000370 e3 5b 23 bc 4f 2c 06 bd fb 33 bd bc 2d 3e 95 3c
       -0.009970638 -0.0327571 -0.023096075 0.018218124
000380 23 b3 55 3c 89 7b 90 bb c1 a2 86 bd b1 56 f4 3c
       0.013043198 -0.004409258 -0.065740116 0.029826494
000390 45 3f 78 ba 47 be 37 3c 2f 87 67 bd b6 98 d1 bb
       -0.0009469877 0.011214799 -0.056525405 -0.0063963784
0003a0 74 6c 07 bd 72 a1 66 bd a3 35 64 bd 0b 12 f3 3b
       -0.033062413 -0.05630631 -0.055715214 0.0074179224
0003b0 d2 8a 58 bd 1d 44 96 3c 61 37 7c bc 9f ce 42 bd
       -0.052866764 0.018343026 -0.015394063 -0.04756033
0003c0 b5 f8 0f 3b cf 09 02 bc 9a 25 57 bc 7c 0a 64 3a
       0.002196831 -0.007936909 -0.0131315235 0.0008699072
0003d0 78 36 0c bd 9c 64 e7 bb 07 71 10 3d 7c 3f f4 bc
       -0.034231633 -0.007061554 0.03526404 -0.029815428
0003e0 7d 75 54 bd 77 47 61 bd c4 e4 c5 3c 90 fb a7 bc
       -0.051869858 -0.054999795 0.024156936 -0.020505697
0003f0 02 9a 92 3c 68 eb 09 bd 04 d2 76 3c 06 43 ae 3b
       0.017895702 -0.033671767 0.01506472 0.0053180484

fc1.bias f4 [120]
000000 30 51 07 bd 81 50 87 bc 03 f8 8e bd 7a 30 52 bd
       -0.03303641 -0.01651788 -0.06980898 -0.051315762
000010 30 82 38 3d e7 83 b0 bd 47 f1 42 3c 7d 61 f7 bc
       0.04504603 -0.086189084 0.011898345 -0.030197853
000020 e2 2c 0e 3b a1 b4 88 bd a0 37 8b bd 1f 1a 95 bc
       0.0021694233 -0.06675077 -0.06797719 -0.018200932
000030 e1 84 8b bc 37 08 02 bd 9e 7d 66 bc 4f 96 fe bc
       -0.017031135 -0.031746116 -0.014068035 -0.031077532
000040 83 0b 45 bb e3 5e b4 bc a1 f7 28 bb 2f c8 8c 3d
       -0.0030066676 -0.022017902 -0.0025782364 0.068741195
000050 25 e4 41 bd 38 79 0c be c5 aa d9 bc a0 04 91 bd
       -0.047336716 -0.13718116 -0.026570687 -0.0708096
000060 74 9c 95 3d 5b 40 5e 3d 98 be 53 bd e4 69 6b 3d
       0.07305232 0.054260593 -0.051695436 0.057474032
000070 25 1b fe bc b1 04 64 bd dd d5 04 bd 9c e2 01 3c
       -0.031018803 -0.055668537 -0.03243052 0.007927563
000080 9a 43 8f bb 6a b5 ae bd b7 ab 17 be 69 01 8e bd
       -0.0043720724 -0.08530696 -0.14811598 -0.06933863
000090 91 d7 66 3d 38 d3 f6 3c b0 28 98 bb 4a 10 5f bc
       0.056357924 0.030130014 -0.004643522 -0.013614723
0000a0 23 3c 8e bc 59 7f 62 3d 44 ec 99 bd 74 50 90 bc
       -0.01736266 0.05529723 -0.07515767 -0.017616488
0000b0 1d 48 35 be 4d 90 02 3c 4f f2 4f bd f0 b5 b4 bd
       -0.1770329 0.007968974 -0.050768193 -0.08823764
0000c0 db d4 01 bb 45 b9 6d bd a8 84 8c bd 55 20 bc bd
       -0.001981071 -0.058038015 -0.0686124 -0.09185854
0000d0 68 4f 28 bd 39 9a 7a 3c 85 45 0e bd f0 00 6c 3d
       -0.041091353 0.015295559 -0.034734268 0.05761808
0000e0 95 07 09 3d ce e1 a8 bc f3 59 12 bd b8 d0 cd 3c
       0.033454496 -0.020615485 -0.035730314 0.025123939
0000f0 d8 c7 8c bd 81 48 ff 3b f9 88 f5 ba 7f 45 ec bd
       -0.06874055 0.0077906256 -0.0018732838 -0.11536693
000100 2b c9 e7 3c 95 18 0d 3c 1b 70 74 bc fe 12 20 bd
       0.028294167 0.008611818 -0.014919306 -0.039080612
000110 60 76 86 3c b0 54 e6 3c 49 ab b3 3a 14 3a de bb
       0.016413867 0.028116554 0.0013707663 -0.006781826
000120 8c 92 0a 3c 1e 54 97 bd a5 2c 7d bc da 7d 86 3c
       0.008457791 -0.07389091 -0.015452539 0.016417433
000130 fe d7 75 bd b8 ab 31 bc ce 55 ce 3c 3c 3e 8f bd
       -0.06002044 -0.010844164 0.0251874 -0.06994292
000140 b4 4f 37 bd 34 40 c5 bd bc 8b 0b bd 25 a7 1e bc
       -0.044753745 -0.096313864 -0.034068808 -0.009683405
000150 32 49 2f 3d 48 70 6f bd 31 8c bd bd 85 07 b9 3b
       0.042794414 -0.05845669 -0.09255255 0.0056466484
000160 36 16 2e bd f6 9e 8b bd a7 c5 87 bb 49 24 31 bb
       -0.04250165 -0.06817429 -0.004143435 -0.0027029684
000170 5f f3 51 3d 5a f6 d1 bd 33 42 1a 3d 80 92 4e bd
       0.051257487 -0.10252066 0.03766079 -0.050432682
000180 74 0b 3c bd 61 f8 4f bd 7f ff 44 bd 89 97 98 3d
       -0.04590936 -0.050773982 -0.048095223 0.07450778
000190 4b 3b 94 3c c8 db 0e bd 7e a9 d3 3d 63 11 d7 bd
       0.01809468 -0.03487757 0.103350624 -0.10501363
0001a0 af b1 9a 3d 31 f9 76 bc 17 82 21 bc c7 0d b5 bd
       0.07553422 -0.01507406 -0.009857676 -0.088405184
0001b0 d6 7a 38 3c c4 7e 62 bc c0 5d 62 bd 6c 80 90 b8
       0.011259755 -0.013824169 -0.05526519 -6.8903755e-05
0001c0 36 d2 a6 3b 1f ab 3e bd a7 b9 a3 3c 41 da 6b bd
       0.005090977 -0.046549913 0.019985987 -0.05758119
0001d0 a7 2e c8 bc ad 27 46 bc 90 f0 8f 3d 1f 30 73 3c
       -0.024436308 -0.01209442 0.070283055 0.014843016

fc2.weight f4 [60, 120]
000000 4a 1f 1b bd c3 52 a5 3b be 32 37 bb 40 50 65 3e
       -0.037871636 0.0050452664 -0.0027953829 0.22393894
000010 dd 97 2d 3e 38 2a a3 bd eb 24 b9 3d f1 47 b6 3c
       0.16952462 -0.07967037 0.09040245 0.022251101
000020 5e 94 8f be 4a 15 ea bc 45 f2 b9 3d 64 9c c8 bc
       -0.28042883 -0.028574605 0.09079412 -0.024488635
000030 fd 77 ca 3b 99 a7 b9 bd c7 46 06 3e 3f 23 2c 3d
       0.0061788545 -0.0906517 0.13112937 0.0420258
000040 1f 37 63 3d d2 b9 b5 bb 92 70 b6 be 21 22 97 bc
       0.05547249 -0.005545833 -0.3563276 -0.018448891
000050 be d7 26 bd de c7 95 be 3d f3 b4 ba 01 54 e3 3c
       -0.04073309 -0.2925405 -0.0013805401 0.027750017
000060 bf 96 82 3e 18 c8 3c 3e 78 02 23 3d fe 41 78 be
       0.25505635 0.18435705 0.039797276 -0.24243924
000070 d1 6a da 3d 8d d1 01 3d e0 68 6b 3d fb a8 5b 3d
       0.10664905 0.031693984 0.057473063 0.05362795
000080 a9 5a 8b 3e 1a 1e 06 3e 55 60 1f be 6f b4 ba be
       0.27217606 0.1309742 -0.15564092 -0.36465785
000090 dd aa 1d 3c 2b 47 8c bc a2 37 2e be 65 7c 26 3d
       0.0096232565 -0.01712378 -0.1701341 0.040645976
0000a0 a7 9d 82 bd 64 4f 82 bc 3f 6c 7b 3e cb aa 1e bd
       -0.06377726 -0.015906997 0.24553011 -0.0387371
0000b0 44 51 56 3d 6f 61 cd 3d cc 8e 15 3d 8b 00 21 bf
       0.052323595 0.100283496 0.036513135 -0.62891454
0000c0 04 01 10 3e ba 66 2d be 2a 57 31 bc 19 12 4c 3d
       0.14062887 -0.16933718 -0.010824004 0.049821947
0000d0 e1 f7 9f 3e 0e 06 61 3d d6 f4 83 3c 8e f6 e8 3d
       0.31243804 0.054937415 0.016107958 0.113751516
0000e0 63 67 54 be 0f 29 1e 3d 0a 75 cb bd 47 0d 09 3e
       -0.20742564 0.038613375 -0.09934433 0.13383971
0000f0 bb 14 93 bd 10 f5 08 3c d9 b3 9d 3d 8d 0c ea bd
       -0.071816884 0.008359209 0.07700319 -0.11428175
000100 54 b5 1f 3d c0 e1 b6 3d b0 2f a0 bd 14 42 22 bd
       0.038991287 0.08929777 -0.07821596 -0.0396138
000110 91 72 7c bc 86 20 3b bd 4b a6 d0 3c c7 e4 14 3e
       -0.015408174 -0.045685314 0.02546992 0.14540397
000120 5f b4 84 bd c1 53 93 bd e8 b6 44 3d 2b ab 2c bd
       -0.064797156 -0.07193709 0.048025995 -0.042155426
000130 fe eb 62 3d b4 1b bb 3d 75 ce b4 3e 58 84 7e 3a
       0.05540084 0.09136143 0.35313764 0.0009709052
000140 01 6d 56 3d 53 2d 0a bd f3 d9 17 3d 60 57 bf 3c
       0.052350048 -0.03373463 0.037073087 0.023357093
000150 d9 f0 33 be e5 c8 54 be 9f 8c d3 bc 79 c6 90 3d
       -0.17572345 -0.2077976 -0.02582389 0.07069106
000160 e6 02 b6 be 4a 40 46 3d 99 3d c5 3e 1e 80 93 3b
       -0.35549086 0.048401155 0.38523558 0.0045013567
000170 3a 07 08 3e f4 82 82 3d e2 7c d2 bc 5c 22 22 bd
       0.13284007 0.063726336 -0.025694314 -0.03958355
000180 a2 9d 30 3c 7b 8b 86 be a2 58 2e 3b 8b 5f a9 bd
       0.01077977 -0.2627829 0.0026603122 -0.082701765
000190 50 37 cb 3d 88 17 00 bd 7e bb 29 3d 60 92 97 3e
       0.099226594 -0.03127244 0.041438572 0.29603863
0001a0 e0 2c b3 bd 9d a0 33 bd 83 97 71 bd 01 2c c5 3b
       -0.087487936 -0.043854345 -0.058982383 0.0060172086
0001b0 84 62 b3 bc 1e 1c 70 3c 62 7c 63 bd 20 86 47 be
       -0.021897562 0.014655141 -0.055538543 -0.19484758
0001c0 92 bd 0a bd 82 58 16 bd 51 2c 8d 3c be 0f 6c bc
       -0.033872195 -0.0367055 0.017233046 -0.01440805
0001d0 8e 2c 25 bc ac c7 64 3e 14 de e2 bd a3 6c fc 3b
       -0.010081423 0.22341794 -0.11077514 0.00770338
0001e0 14 58 48 3d b8 a7 5f 3c 72 56 db 39 02 9f 2a bb
       0.048912123 0.013650827 0.00041835342 -0.0026034717
0001f0 93 13 00 bc f7 3a 90 3d b7 73 b7 3d f8 47 cd 3d
       -0.007817167 0.07042497 0.08957618 0.100234926
000200 dc 5f 85 bb 12 13 cc 3d 7d c4 2f bd 06 ac c9 3d
       -0.004070265 0.09964575 -0.042911995 0.09847264
000210 0b e8 5a 3d 24 7a f4 3c 94 8f 99 be 39 0d b6 3d
       0.05344395 0.029843397 -0.29992354 0.08889241
000220 c5 8c 47 3d 5a da 8b 3d 88 07 ae 3e 42 1f d9 be
       0.048718233 0.06828757 0.3399012 -0.4240666
000230 6f d9 75 bc 4e 6f 0d 3c cf 7a 9b 3d d3 cd 95 3e
       -0.0150054535 0.008632494 0.07591783 0.29258594
000240 63 24 3b be 1f ce b2 3c 09 4d 37 3d ad 57 02 be
       -0.18275599 0.021826802 0.0447512 -0.12728758
000250 46 8c 80 3c 97 80 49 3d 5c 2b ac bd 47 89 35 3d
       0.015691888 0.0491949 -0.08406708 0.04432037
000260 85 cd eb be d1 f3 72 be 73 6d 60 3e 8b 35 35 3d
       -0.46055236 -0.23725821 0.21916752 0.044240516
000270 6f f1 0f 3e 88 a8 ff bc 65 fb bf bd 1d f9 40 bc
       0.14056943 -0.031208292 -0.093741216 -0.011778143
000280 6f 5c 17 bd 3a f8 ca 3b 53 19 0b 3d 67 b0 00 3e
       -0.036953386 0.0061941417 0.033959698 0.12567292
000290 af 72 65 bc 3e 33 17 be fd ad 0c bc 9f aa fc bc
       -0.0140043935 -0.14765641 -0.008586404 -0.030843077
0002a0 c4 79 b1 3d 88 39 79 be cb a8 2a 3d 5b a4 1e 3d
       0.08665803 -0.24338353 0.04166488 0.03873096
0002b0 34 3f 6c bc 38 e1 35 3d e1 b0 58 bd 92 c3 13 3d
       -0.014419366 0.04440424 -0.05290306 0.036075182
0002c0 fd 58 cb 3a 64 56 07 3e e3 ce 9a 3e 36 e5 34 be
       0.0015514191 0.13216549 0.30235967 -0.17665562
0002d0 f2 34 bb 3c b7 6e 7d 3c 3d 64 f8 bd 92 9e 5a 3e
       0.022852395 0.015468291 -0.12128494 0.21349552
0002e0 ca 1c 88 be 69 71 dd 3d 8a b2 55 bd 89 bf 4e bd
       -0.26584464 0.10812647 -0.05217222 -0.05047563
0002f0 b7 d3 08 3e 07 fa 18 3d 7d 56 38 bd a8 6b 27 bd
       0.13362013 0.03734782 -0.045004357 -0.040874153
000300 1f 4e 0e bc 26 75 39 3d 36 47 ae 3d 25 26 b0 bd
       -0.008685618 0.045277737 0.08509676 -0.086010255
000310 f7 a3 69 bd 6d 47 58 be f2 77 b2 be 51 7c 56 bd
       -0.057041135 -0.21120997 -0.34857136 -0.05236465
000320 de 03 99 3c 07 44 20 be cd f4 f3 3c 58 d2 75 3d
       0.018678602 -0.1565095 0.029779816 0.060015053
000330 e2 c5 96 be c9 cc 14 3d d0 3f 50 3d dc 57 a4 3d
       -0.29447848 0.03632811 0.050842106 0.0802457
000340 14 6d 8f bd 63 68 f3 3d 1a 0a 83 be 29 b2 00 3d
       -0.07003227 0.118851446 -0.25593644 0.031419907
000350 33 7f d7 3d 07 3f 88 3c 6b 5d 4d bc 12 35 4e bd
       0.10522308 0.016631616 -0.01253448 -0.05034358
000360 43 14 8e bd 13 3b 96 bd b1 08 d1 3c 1c f3 46 3d
       -0.06937458 -0.07335486 0.02551684 0.04857169
000370 9c 8b 80 bd a8 7b 10 bc 55 d4 84 be 6a 72 2d be
       -0.062766284 -0.008818544 -0.25943246 -0.16938177
000380 63 1d e3 bb 84 26 51 bd 4c 10 a9 bd a4 c1 cf 3d
       -0.0069309934 -0.051062122 -0.082550615 0.10144356
000390 e7 e7 97 bc ed 32 b0 bd 71 b9 9a 3d c6 6a f0 3d
       -0.018543197 -0.08603463 0.075549014 0.117391154
0003a0 1a 18 98 3d e6 51 77 bc 8a c3 16 be 0e 1a ed 3d
       0.07426472 -0.01509521 -0.1472303 0.11577235
0003b0 84 34 1f 3d 5f 2d b6 bc a9 ec ed bd 18 02 86 bd
       0.038868442 -0.022238431 -0.11617405 -0.06543368
0003c0 00 9b 9f 3d 6a 3d ca bd a2 7f 36 3d 2c 41 86 3d
       0.07793236 -0.09874995 0.044555314 0.06555399
0003d0 f1 b0 7c bd 97 8c 62 3d e9 3e 42 3e 5b 2d ac bc
       -0.061692182 0.05530986 0.18969311 -0.02101772
0003e0 e6 ee 09 be a6 e3 5c bd 15 32 2f 3d ee 78 5f 3d
       -0.13470039 -0.05392804 0.04277237 0.054558687
0003f0 13 bd 94 bd 0e af cd 3c 6f c3 19 3e 3e 92 1c be
       -0.072626255 0.025107887 0.15015958 -0.15290162

fc2.bias f4 [60]
000000 e8 d8 56 bd 02 52 2c bd 5b a7 22 3c 3b 8e 88 3c
       -0.05245295 -0.042070396 0.009927596 0.016669383
000010 6d c0 64 bc 00 bb f4 3d 0b 05 27 be cd 6f 9a bd
       -0.0139618935 0.1194973 -0.16310517 -0.075408556
000020 3a f2 d9 bd 86 b9 11 be 39 0d 09 be 16 31 1c bd
       -0.10641904 -0.14230928 -0.1338395 -0.03813275
000030 df a2 90 3d 11 53 ae bd c1 78 45 be f0 49 35 3e
       0.07062315 -0.085119374 -0.19284345 0.17703986
000040 12 7e 9e bd b2 f9 da 3d 6c 49 8d 3c 5c 6c 98 bc
       -0.0773889 0.10692157 0.017246924 -0.018606357
000050 07 fb ee bd c6 c3 01 3d 03 99 80 3d 21 19 73 3d
       -0.116689734 0.031680845 0.06279185 0.059350137
000060 27 94 83 3d f3 1c 17 be d6 f8 14 be 60 2c 39 3c
       0.06424742 -0.14757137 -0.14548048 0.011302084
000070 ee 9c cf bd bd 2a f1 3d 81 55 40 be 56 ab b6 3c
       -0.10137354 0.1177573 -0.18782617 0.022298496
000080 81 71 a8 3d f7 73 84 3c 07 00 10 3c 00 2e df bd
       0.08224774 0.016168578 0.008789069 -0.10897446
000090 28 33 84 3d f4 b9 a7 3d b5 f8 ee bd e9 b4 ce 3c
       0.0645507 0.081897646 -0.11668531 0.025232749
0000a0 e3 50 44 be a9 20 54 be 3a e2 6b bd 73 25 49 3c
       -0.19171481 -0.20715584 -0.057588793 0.012276995
0000b0 eb 41 1c 3c 78 61 e1 bb dd ee 41 3e c2 3b e1 3d
       0.0095372 -0.0068780743 0.18938775 0.10997726
0000c0 d1 9e 48 bb dd 8c 14 3d 33 a8 03 3e 9a 42 cd 3d
       -0.003061224 0.03626715 0.12857132 0.10022469
0000d0 f1 44 cd 3d ec 7d b3 3c ed 5a 52 3e 49 ff d5 bd
       0.10022915 0.02191063 0.20542498 -0.104490824
0000e0 69 fc 0e 3d 9a 25 c7 3d 4a cd b7 3c a3 1c 15 be
       0.034908686 0.09723969 0.022436757 -0.14561705

fc3.weight f4 [10, 60]
000000 30 2e 85 3e 05 b4 33 bf a3 1f 46 3e 6b 96 f9 bd
       0.260118 -0.70196563 0.19348006 -0.12186893
000010 ed 6b 87 3d 02 0b c1 3b 6b c9 a2 be b6 9f f7 3c
       0.06612382 0.005891205 -0.31794295 0.030227523
000020 fa db 9f be 94 54 8c be 32 29 0f be 52 8b 07 bf
       -0.31222516 -0.27408278 -0.13980559 -0.5294696
000030 16 e4 9e be 20 d2 ab be b7 4e f3 be 70 fd 21 3e
       -0.3103339 -0.3355875 -0.47520992 0.15819335
000040 bd 9f db 3d 29 c2 c5 be 62 6b 9b bc b5 df 54 be
       0.10723827 -0.38624695 -0.018972103 -0.20788462
000050 b2 68 b1 be 02 fd 97 be c2 a6 12 3d ee 49 4b 3d
       -0.3465019 -0.29685217 0.035803564 0.04963105
000060 2a 44 f6 be 7b aa b1 3d 5e 82 7e bd 53 4c 81 3e
       -0.4809888 0.08675095 -0.062136047 0.25253543
000070 81 5b 03 3d c6 45 c5 3d fe bc b4 be 4d 33 06 bf
       0.032069687 0.09632449 -0.3530044 -0.5242203
000080 fb 8a 65 3e bc 7b 0d 3e 47 48 04 3e 68 47 1a 3e
       0.22416298 0.13816732 0.12918197 0.15066302
000090 86 41 aa be c3 22 99 be 53 2d f2 bd 3b f3 6d be
       -0.33253115 -0.29909334 -0.11825051 -0.23237316
0000a0 c7 0f aa be c6 3e c1 3d a4 fb c4 be 74 5e da be
       -0.33215162 0.09435801 -0.38473237 -0.42650187
0000b0 4a e2 d7 be bb a7 8a be 19 86 86 bd 28 9e c2 be
       -0.42164832 -0.27081093 -0.06568546 -0.3801129
0000c0 40 be ad be 93 2e 54 3d 12 28 bc be 89 27 f9 bd
       -0.33934212 0.05180223 -0.3674932 -0.12165744
0000d0 4f 34 05 be 96 0e 44 3e 56 ab 80 be 0b 72 ac bd
       -0.13008235 0.19146189 -0.2513072 -0.084201895
0000e0 66 dc 4b 3e 22 8b 48 be b2 70 80 3c 6d 9f e8 3c
       0.19908294 -0.19584325 0.015678737 0.028396333
0000f0 a5 8d 54 bd c3 ca 5e bd 88 25 ad bd e6 6f b8 3e
       -0.051892895 -0.054392587 -0.08454424 0.36022872
000100 e6 55 d8 be e4 78 a0 bd 90 6a 36 be 63 3c c0 3d
       -0.42253035 -0.07835558 -0.17814088 0.09386518
000110 8a 05 ec 3d 91 dc 80 be f7 e9 2f bd a9 ba 9d be
       0.11524494 -0.2516828 -0.042947736 -0.30806473
000120 67 cd 9d 3d 35 e5 ce be b8 bb d5 3d f2 6a b5 be
       0.07705193 -0.40409246 0.10436195 -0.35433155
000130 95 9c a2 be 91 e2 05 bd 5d 12 f7 be f4 b9 12 bf
       -0.31760088 -0.032686774 -0.48256198 -0.5731499
000140 64 b2 3a be d6 40 7d be 8c 5b 32 be b5 dd ae bc
       -0.18232113 -0.24731764 -0.17417735 -0.021345953
000150 8f 52 09 3e 48 ad 89 bd d9 90 ce 3d 7c 36 36 bd
       0.134104 -0.06722504 0.10086221 -0.044485554
000160 0c 2d dc bd 46 47 e9 bb f9 2a 1c bd 0a 7d 4b 3c
       -0.107507795 -0.007119092 -0.03812692 0.012419948
000170 f1 35 3e be 1c ee db be 4a 43 53 3d 37 e9 a3 3e
       -0.18575265 -0.429551 0.051577844 0.32013866
000180 24 9c 8f 3e 3c e9 ce 3d 2e a1 00 be d9 97 2a be
       0.28048813 0.1010308 -0.12561485 -0.16659488
000190 17 67 13 be 5b cb 3d be d2 f9 4a 3e ee fb 94 3e
       -0.14394794 -0.18534605 0.19821861 0.29098457
0001a0 f4 b8 8a be 65 b8 34 bd 02 b4 92 be 66 ac 08 be
       -0.27094233 -0.044121165 -0.2865296 -0.13347015
0001b0 71 af ca be 62 97 e8 be 30 b5 e3 3d 49 13 55 be
       -0.39586976 -0.45427996 0.11118543 -0.20808138
0001c0 b5 19 8c be 82 1e a2 3d 9b 7d b3 be fb fe fc ba
       -0.27363363 0.07915975 -0.35056767 -0.0019302064
0001d0 eb 92 a3 be b7 0f 7b be ba 4d db bc 7c 82 8c 3e
       -0.31948027 -0.24517713 -0.026770461 0.27443302
0001e0 fb b8 99 3d 97 6d 81 3c 86 94 54 bd d8 31 7a be
       0.07505985 0.015799327 -0.051899455 -0.24433076
0001f0 51 af a3 bd a8 b7 31 bf ae 41 90 3e 70 34 aa bc
       -0.07992423 -0.6942086 0.2817511 -0.020776957
000200 40 08 94 bd 9a 14 4f 3d b9 d8 05 be e8 91 3d 3e
       -0.07228136 0.050556757 -0.13070954 0.1851269
000210 8e aa 5a be c7 df 6b bd a7 cb 47 bd 84 28 4d bb
       -0.21354124 -0.057586458 -0.048778202 -0.0031304667
000220 37 04 ae be 04 2e 25 be 0c 59 93 be 41 1e 11 bf
       -0.3398759 -0.16130835 -0.28778875 -0.5668679
000230 17 d7 71 be 4a 11 8f bd 2a 13 b5 3d 68 e2 9f 3e
       -0.23617207 -0.069857195 0.08841546 0.31227422
000240 93 6c 07 bf 14 ad 06 3d 40 e3 e4 bd cc 3f da be
       -0.52900046 0.032879904 -0.11176157 -0.42626798
000250 07 8b da bd 86 38 94 3d c7 9e 24 3c 56 21 41 3d
       -0.106710486 0.072373435 0.010047621 0.047150932
000260 7c 4a ee 3d b7 6d 31 3e f9 6b a3 bc d3 4a a0 be
       0.116353005 0.17327009 -0.019948946 -0.31307086
000270 ce 2f 3f bf 32 fe 68 be a7 56 42 bd bb 5f 0f bd
       -0.7468232 -0.22753218 -0.04744592 -0.035003405
000280 8b 80 0f bc bd f5 57 bc 9f 2c 23 3e cc 1a 00 3d
       -0.008758674 -0.013181147 0.1593499 0.031275555
000290 c7 09 bb 3d e6 7f dc 3d 1c 75 33 3e 49 f4 b6 bd
       0.09132724 0.10766582 0.17525142 -0.089333124
0002a0 32 db 19 bd eb f8 2a be d4 41 44 3e a3 87 b4 be
       -0.037562557 -0.16696517 0.19165736 -0.35259733
0002b0 71 26 79 3d 82 f1 a6 3c 42 cd 01 bf b8 9f 8b bc
       0.060827676 0.020378832 -0.50703824 -0.017043933
0002c0 de 00 ef be 26 aa a0 be 54 45 39 bc 07 86 04 bd
       -0.4668035 -0.31379813 -0.011308033 -0.03235438
0002d0 b3 e3 25 be 5a 95 48 3e 94 6c 1f 3e f5 5a 89 3d
       -0.16200142 0.19588223 0.15568763 0.06706802
0002e0 32 e3 97 be e0 58 af bd 01 a8 ff bb 15 3c 06 bd
       -0.29665524 -0.085618734 -0.00780201 -0.032772142
0002f0 84 3a ec 3d c3 e0 02 be 71 c4 f2 3c db 5e b0 be
       0.115345985 -0.12781052 0.029634686 -0.3444737
000300 89 95 52 3e b2 2d 65 be 7e 05 a5 3c bc a9 e5 3d
       0.20564856 -0.22380713 0.02014422 0.11214015
000310 cd 99 a1 be f3 ed 82 bd 20 ba 80 be 16 2e 18 3e
       -0.31562653 -0.063930415 -0.25142002 0.1486133
000320 12 68 f1 bd 30 18 6c be f9 5d 9f bc 1e 42 79 be
       -0.11787428 -0.23056102 -0.01945399 -0.24341628
000330 4a 16 98 be 38 9c 81 be 87 0d 1e bf 2c 5e f4 be
       -0.29704505 -0.25314498 -0.6173939 -0.47728097
000340 e5 25 a8 bd 8e b6 ad bc 37 38 02 3e 5e cb 9e be
       -0.08210353 -0.021205213 0.12716757 -0.31014532
000350 c0 20 1b be b0 08 9f bd d8 37 9b be 43 ca fa be
       -0.15149212 -0.07765329 -0.30316043 -0.48982438
000360 10 ea fe be 34 54 43 3e 69 53 59 bd 96 7e 71 bc
       -0.4978795 0.1907509 -0.05305806 -0.014739653
000370 3e 1b 13 be 69 58 5c be 9d 63 75 bd 34 16 d8 be
       -0.14365861 -0.21518101 -0.05990945 -0.4220444
000380 04 5c 73 3e a5 38 be 3d 33 7d 64 be 40 c1 79 bc
       0.2376557 0.09288148 -0.22313385 -0.015243828
000390 d6 96 26 be ba b2 81 3e bb d2 4e 3e e4 55 5e 3e
       -0.16268477 0.2533167 0.20197575 0.21712452
0003a0 5e f3 97 be 3a a0 09 bf fe 79 6f be ee b2 fa 3c
       -0.29677862 -0.5376011 -0.2338638 0.030602898
0003b0 43 08 9c be 95 e0 45 3d 88 ed 40 bd 22 4c f1 be
       -0.30475053 0.04830988 -0.047101527 -0.47128397
0003c0 07 ef 47 3e c4 cd bb be 1a 65 80 be a4 18 d3 be
       0.19524775 -0.36680424 -0.25077134 -0.41229737
0003d0 28 5a 4a 3e a3 c7 fb bc 5d 53 31 be 74 99 4b 3c
       0.19760954 -0.030734843 -0.17316957 0.012426723
0003e0 97 17 83 3d a0 46 32 be b5 c7 0c bc 16 a2 ac 3e
       0.06400984 -0.17409754 -0.008592536 0.33717412
0003f0 aa be 22 3c 96 43 5b be 62 74 9a 3d 6e f5 fd be
       0.009933153 -0.214125 0.075417295 -0.4960131

fc3.bias f4 [10]
000000 fd 9a a4 3d a8 c1 2d be 03 b4 bf bd bf 8d 8a 3d
       0.08037374 -0.16968405 -0.093605064 0.06765317
000010 6e 6b 2f be 53 da 56 bd d5 cf 8b be f9 29 be bd
       -0.17130825 -0.052454304 -0.27307 -0.092853494
000020 e5 32 82 3e d8 ad 95 3d
       0.25429454 0.07308549
